data/neural_net.pth (torch, 28079 bytes, 5 tensors)

weight f4 [50, 21]
00000000: 8748 ebbc 5000 06be 15df 55bd f87a 36be
00000010: 3cd0 1c3e 9279 e7bd acf5 5fbc 8d33 7dbd
00000020: 870f 0e3e 0e7b 82bd 89c3 59be 4d75 b0bd
00000030: e01b 983d 7f99 c8bd 624f 8f3c a122 01be
00000040: 61f3 993d 8c29 bb3c b266 0b3e 06d8 1cbd
00000050: 6ac6 5ebe 4c82 6fbe e170 ffbb 68b5 fe3d
00000060: e651 23be 7ad7 b3bd c281 793d 65a6 103e
00000070: 704f 8e3d a29f 493e 2e7f 2e3e 2033 0abe
00000080: 83c0 a4bd 3807 62bd ff86 91bd 24e3 cb3c
00000090: ad81 3cbd 4cf7 96bd 442d fdbd 545e 22be
000000a0: bfc7 40be e574 183d 4e32 75be 6a6f c53d
000000b0: f46d 953b a1e7 6ebd 7b01 15be 06a3 33be
000000c0: 7b29 2ebe 3407 7b3e 6924 a5ba cd97 9fbd
000000d0: c316 c1bc a4a1 053d 220a bebc cef8 723d
000000e0: a1c0 583e ec74 64be 3cc2 3d3e a5d8 adba
000000f0: 8d8c 263e 8db6 1b3e 9ad1 04be 0240 31bd
00000100: 7fbd bdbb e4b6 67bc 1573 cdbd b2da c1bd
00000110: db0d 00be 5b31 80be 21e3 9c3c f4ca 18be
00000120: f1e9 483e 7fcd beba c1ff 3ebe 5002 b1ba
00000130: eb0d 9c3d d688 283e bbf2 97bc e0a9 8e3c
00000140: 5cfd f13c c498 333e ba4c dfbd 982e b4bd
00000150: 0c1b 983a aad9 343d 73c5 b1be 9361 08be
00000160: 91c8 9b3c a580 59be 028e 5f3d 81c5 813e
00000170: f452 5d3d 039c 3bbe 17dd 3ebd 4263 0ebe
00000180: 4154 2ebb cddd 543e b383 443e bebf 373e
00000190: de23 053c 6623 cd3b 46be 53be 8122 383e
000001a0: 841b e3bd 3152 72bd 2b74 7d3d e9d5 eebd
000001b0: a0b6 72be 6f32 893e 4c44 60bd 723d 07bd
000001c0: 9b0f 303e c19f 56be 8f14 6c3e 433d d23d
000001d0: aa99 843e 6440 63be 7fb4 7bbe bfc4 033e
000001e0: 4b3a 993e c4de ae3d 22fc 0f3e f8f8 debd
000001f0: 027a f93d 2245 94bc e0d7 b63d f29d 44be
00000200: 3677 0cbe 363c 263e bccc 87bc c51e 3dbe
00000210: 8f0f 393d c6cb c83d eca0 7fbd 52c0 9dbc
00000220: 049a 6b3e a947 3b3e 3c4d 3bbe 470c a73d
00000230: 168a 07bd 9cff 8c3c e502 51be 7f76 063e
00000240: c5c7 163c 27ad 323e aacd 993e ab69 6dbe
00000250: 5188 d33d 08c6 93be 4e39 1e3e e906 793d
00000260: 1238 b4bd 5ca6 5fbe e6ae 1dbe b3f2 ddbd
00000270: 4462 91bd b926 203d 58ee 563e e2de 92bd
00000280: 98e8 533b 876e eabd 7875 d03d 9918 e93d
00000290: 0479 193d 460a f03d f94f 353e 253d 49bd
000002a0: 2bf5 9abc 7e35 8bbd 9de8 99be 4223 c83c
000002b0: fe03 cd3b 6c23 3cbe c345 8bbe c786 e03d
000002c0: f358 e73d b65f e0ba 4298 d7bc cf7a 9d3d
000002d0: 6abb 97bc 0ba1 093e f320 2ebd b16c cb3d
000002e0: a01e f83d e435 553e 4ab4 5c3d 479f 78be
000002f0: 5831 7a3e 4baa 393c 1080 dabd 1c94 2abe
00000300: cc9f 253e 3ef0 03be 6666 07be b919 0cbc
00000310: 7394 e2bc 8e0c 35be 0d97 263e 9498 3b3e
00000320: 278c 1dbe 0bec 013e 9e85 19bd 3b39 0e3e
00000330: 4592 80bd 86d0 743e 99ad 12be a069 a3bd
00000340: ed23 7bbc a46b 8d3e 6d2c 44bd 1343 003c
00000350: e262 873b 9a89 68be 5e53 9c3d 1827 b3bd
00000360: b2f4 e53d 951d dcbc 3fa5 943e 9a39 a3bd
00000370: 6ce3 c8bd 9bd9 b63d 0802 50be e7df 56be
00000380: 0325 04bd 7620 113d 4cb2 6e3e ba22 15be
00000390: 3a0d 03be 6eba 123e 29cc 373d 0615 9b3c
000003a0: fb3b bcbd 41b6 413e b0ab ce3c a984 01be
000003b0: 3e84 d23d e862 d93d f3e4 8b3e 2505 adbd
000003c0: 22e9 c8bd 6761 893e c363 be3d df21 9e3d
000003d0: 96c0 68bd 648e 3f3e f63c 2fbe 9183 29bd
000003e0: dd21 873e aa4a b6bd 1ef0 89bd 0b0e 803d
000003f0: 6715 563e bd92 96bd 692c 103d 747f 353e
-0.028721107 -0.13086057 -0.0522147 -0.17820346 0.1531381 -0.113024846 -0.013669413 -0.06181674
0.1387311 -0.06371127 -0.21265997 -0.08616123 0.07427192 -0.09794902 0.017493907 -0.12610866
0.07517124 0.02284696 0.13613394 -0.038291954 -0.21755376 -0.23389548 -0.0077954386 0.12436944
-0.1594921 -0.08781333 0.060914762 0.14125974 0.06948745 0.19689801 0.17040703 -0.13496065
-0.08044531 -0.055182666 -0.071058266 0.024888583 -0.046022106 -0.07371387 -0.12362149 -0.15856296
-0.18826197 0.037220854 -0.23944971 0.09640391 0.0045602266 -0.058326367 -0.14551346 -0.17542657
-0.17008011 0.24514467 -0.0012599352 -0.077926256 -0.023570424 0.032624856 -0.023198191 0.05931931
0.21167232 -0.22310227 0.18531126 -0.0013263418 0.16264553 0.15206356 -0.12970582 -0.043273933
-0.005790412 -0.014142726 -0.10031716 -0.09465541 -0.12505285 -0.25037655 0.019151272 -0.1492117
0.19620492 -0.0014557092 -0.1865225 -0.0013504717 0.07619842 0.16458449 -0.01854836 0.017414987
0.029539756 0.17538744 -0.10903306 -0.087979496 0.001160474 0.044152893 -0.34720954 -0.13318472
0.019016536 -0.2124048 0.05457879 0.25345996 0.05403419 -0.18321232 -0.046597566 -0.13905051
-0.0026600512 0.20787735 0.19190864 0.17944238 0.008126227 0.0062603233 -0.20678052 0.17981912
-0.110892326 -0.059160415 0.061878365 -0.11661894 -0.23702478 0.2679629 -0.054752633 -0.033017583
0.17193453 -0.20959379 0.23054717 0.10265591 0.25898486 -0.22192532 -0.24580573 0.12868021
0.29927287 0.08538583 0.14061025 -0.10887331 0.12181474 -0.018099371 0.08927894 -0.19200876
-0.1371735 0.16233906 -0.016577117 -0.18468769 0.045180853 0.09804492 -0.062409326 -0.019256745
0.23007971 0.18289055 -0.18291181 0.081566386 -0.033090673 0.017211728 -0.2041126 0.1313114
0.009202902 0.17448865 0.30039722 -0.2318484 0.10328735 -0.28862023 0.15451548 0.060797606
-0.08799757 -0.21840805 -0.1539875 -0.10837307 -0.07098821 0.03909943 0.20989358 -0.07171418
0.0032334682 -0.11446863 0.101786554 0.11381645 0.037468925 0.117207095 0.17706288 -0.049130578
-0.018915733 -0.06797312 -0.30060282 0.024430875 0.0062565794 -0.18372887 -0.2720166 0.10963207
0.112962626 -0.0017118368 -0.02631772 0.076894395 -0.018521983 0.1344034 -0.04251189 0.099328406
0.12115216 0.20821339 0.053882875 -0.2427951 0.24432886 0.011332105 -0.10668957 -0.16658062
0.16174239 -0.12884614 -0.13222656 -0.008551055 -0.027658677 -0.1768057 0.16268559 0.18319923
-0.15385495 0.126877 -0.037480943 0.13889019 -0.06277899 0.2390767 -0.14324035 -0.07979131
-0.01532839 0.27621186 -0.04789393 0.007828492 0.004131661 -0.22708741 0.076330885 -0.08747691
0.112283126 -0.026869575 0.29032323 -0.07969971 -0.09809002 0.08928224 -0.20313275 -0.2098385
-0.03226186 0.035431348 0.23310202 -0.14564028 -0.12798014 0.1432893 0.044872437 0.018930923
-0.09191128 0.1891718 0.025228351 -0.12648262 0.102791294 0.10614568 0.27323112 -0.08448247
-0.098100916 0.26832125 0.09296372 0.07721304 -0.05682429 0.18706661 -0.17113099 -0.041385237
0.26393023 -0.0890096 -0.06735252 0.062526785 0.20906602 -0.07352207 0.035198603 0.17724401

bias f4 [50]
00000000: 36ac 023d 2826 c5bd 32a8 fe3d 49bd 23be
00000010: 9455 a83d f264 9f3d b736 f53d 5f66 d63d
00000020: 18a3 d53c 86bc da3d 81ba 4a3e 672c e7bd
00000030: 90c7 07be d768 4fbe 483e 113e 97eb a8bc
00000040: d883 af3d 86f1 973d 0298 5a3e 67b9 81bd
00000050: 5a1f 493d fa00 06be 0ab0 cfbc 86fc 30be
00000060: cbb3 023d a00d 413e 1cf5 01be 31a4 8ebd
00000070: b0bf b73d 24e3 303e 0530 30be 22f0 d1bd
00000080: 0262 33be 3311 263e 74f7 db3d e283 9c3c
00000090: 9721 ddbd 3897 723d 3643 10be c6e5 9a3d
000000a0: 9a49 103c af63 1dbe 18bb f53c dc34 1c3e
000000b0: f2a7 9a3d fb86 213e 0653 523e fd72 f43d
000000c0: d190 1d3e 42b7 edbd
0.031902514 -0.09626418 0.124344245 -0.15990175 0.08219448 0.07782926 0.11973327 0.104687445
0.026078746 0.10680489 0.19797708 -0.11287766 -0.13259721 -0.20254837 0.14183915 -0.02062015
0.08570069 0.07419114 0.21347049 -0.06334191 0.049102165 -0.1308631 -0.025352497 -0.1728383
0.031909745 0.18852854 -0.12691158 -0.06964911 0.08972108 0.17274147 -0.17205818 -0.1025088
-0.17517856 0.16217498 0.10740557 0.019105855 -0.107974224 0.059226245 -0.14088139 0.07563357
0.0088066105 -0.15370058 0.02999644 0.15254539 0.07551564 0.15774147 0.20539483 0.11935995
0.15387274 -0.11607219

weight f4 [100, 50]
00000000: 5ae0 ab3c 96da 7bbc 1dab 103e a4ac f93d
00000010: 3cdd fd3d d643 14bd 30bf 1c3e 5b8a 263e
00000020: 409b fdbd 68c2 daba e5b5 a2bd 8c16 ae3c
00000030: 6e08 8ebd 3f6b bbbd c80d 3dbb 8c6c 213d
00000040: 839c 31be dccf e53d 431c aebd 9f6a 29bd
00000050: 70e0 8b3d 83e4 913d b8d2 4b3c e5a8 4fbe
00000060: 8e84 853d edaf 903d fac4 e7bd 7072 d3bd
00000070: 6854 05be 115c 13bd cee9 413e 9b4f 5f3c
00000080: 5c1d f7bd a6e7 5ebd 64e3 eb3d 8ac5 7e3d
00000090: 56e3 b8bc 3cc2 c2bc e1ff 723d f83c 1d3d
000000a0: b9e3 103d 39ed b7bd 7d64 6a3b da1e db3d
000000b0: 141b f0bc 26e6 523d 9395 2f3e 4429 b93c
000000c0: a96e fabd 78df a9bd cdc1 e3bd d7c0 7e3d
000000d0: 0e7d e63c 92f5 86bd 0070 c33d 3337 13bd
000000e0: cf46 0a3e d449 95bd 0bea a13d 301d 1a3e
000000f0: 66ac 843d c3a1 d03d ef3d 10be 3711 e93d
00000100: 5d20 a3bc b3b7 3dbd 76d6 0e3e aa9e 663d
00000110: 1f9e b1bd 2735 703d a045 05be bba1 b3bd
00000120: 7ebe 183e f337 30be 64ae bd3c 18b7 09be
00000130: b669 f8bd e441 24be fd3a a13d b427 b9bd
00000140: c814 b2bd 8b67 48be e934 1dbd 9da1 e0bc
00000150: 3819 cdbc ed66 1f3e 5ab4 0abe 61d3 e3bd
00000160: 3489 dc3d 922e d3bd f356 273e 402f e53d
00000170: 7c2c 39bc 3141 3bbd 41bb 4cbc 31cb c0ba
00000180: ccd8 b13d 8daf 093e d85c e2bc b684 c6bd
00000190: 312a bf3d 94bf dbbd 2173 083d 186f c23d
000001a0: 46a3 22be 5ff1 b03d 1aac 3fbe 1da1 11be
000001b0: d90d 2cbe d5ae 01be 3143 263e 4bc5 f43c
000001c0: aa2a 813d d555 303e 736c 383e b604 4e3c
000001d0: cd5a 72bd 5bf4 b03d 7a26 e0bd 10b4 c5bc
000001e0: 175a 88bd d5cd 8b3b 0a2a 43bc 2c66 793d
000001f0: 93fc 833c 8dfc 4ebe 0865 773c b513 bdbd
00000200: afe4 1a3d 4351 45bd d48c 17bd 6167 b5bd
00000210: 2278 0dbd 80a3 43bd 23a2 6a3b 3daf 8cbd
00000220: a2df 2c3e 62d0 06be 9f49 eabd e2f8 ccbb
00000230: 6300 de3d 75bb 24be cc36 d4bd d7f1 033e
00000240: 300c 2c3e d301 c8bc b5e1 51bd e9ea 2ebc
00000250: 84ca 023e d465 413e 1ef0 4cbb cd17 2bbe
00000260: 885d 07be dcfe 06be c26a b3bd c45a b23d
00000270: 5037 c0bd af73 163c c9fd bebd de65 74bc
00000280: 6252 13be 49be 44bd 0026 03be fc1f 8b3d
00000290: df2a 313d a109 b63d bd1c d83d ec2c f5bd
000002a0: 7f7e 9a3d 7580 6e3d ec73 5e3d e848 97bd
000002b0: 7e91 95bd d5d2 ed3b d9ac 18be d61c f13d
000002c0: 0ee9 0fbe dac8 823d 63b9 a6bc 3e41 743d
000002d0: 022f 1fbe 93ef 6bbd c122 a8bb 12c4 073e
000002e0: b8a1 b93d 23b7 a33c 97da 9bbd b02e 093d
000002f0: 450b 85bd a59f febd 4c82 8d3d f929 0ebe
00000300: 39b3 673d f448 a93d 3a55 03be 31a2 18bd
00000310: d36d 473e ddf1 39bc c88f 223e 52d2 133e
00000320: 25c3 473d c59a 76bd ef32 4fbe a30e 8d3d
00000330: fbf9 3ebe 4e05 0abc d80e 00be a9e5 8b3d
00000340: 29a6 32be b220 2dbe 139e abbd 799c ebbd
00000350: cffe 0d3e f2a0 cebc f5bd 0a3e 8851 84bd
00000360: 8952 9b3d 6d94 2cbe 93d2 d0bc 33ed 59bd
00000370: 576f f9bd 6a35 a8bd f2db 88bc f4b3 e83d
00000380: 4796 47be 4044 dd3d a388 753c 907c e33d
00000390: 460b a43d 71f6 b03d f902 7cbd 097f 25bd
000003a0: b1d0 34bd f32c 05be f9c0 92bd 7c23 9abd
000003b0: 816f eb3a cfe9 6abc 2a2a 0abe 236a bb3d
000003c0: 652a acbb b154 9bbc e0d6 bdbc 4074 fb3d
000003d0: 9e7a 66bd 8e78 10be 6899 84bd 433d 85bc
000003e0: 9210 e03d 7f55 323e d46b b9bd 3b37 43bd
000003f0: f84d 8e3d 9d33 f6bd 991c 23be f53c 3cbe
0.020981003 -0.015371939 0.14127775 0.12191132 0.12395713 -0.036197506 0.15307307 0.16263716
-0.12383127 -0.0016690018 -0.0794485 0.021250986 -0.069352016 -0.09151315 -0.0028847326 0.03941016
-0.1734486 0.11221287 -0.08501484 -0.041361447 0.068299174 0.07123663 0.012440376 -0.20279272
0.065194234 0.07064805 -0.11316867 -0.103245616 -0.1302048 -0.035976473 0.18936846 0.013629819
-0.12066147 -0.054420136 0.11517981 0.062200107 -0.02256934 -0.023774259 0.059326056 0.038388222
0.035373423 -0.089807935 0.0035765462 0.10699244 -0.029309787 0.051489018 0.17146902 0.022602685
-0.12228138 -0.082945764 -0.11120949 0.062195625 0.028135803 -0.065898076 0.09542847 -0.035941314
0.13503574 -0.07289472 0.07905968 0.15050197 0.06478195 0.101871036 -0.14086126 0.113802366
-0.019912893 -0.046317767 0.13948998 0.056303658 -0.08672737 0.05864444 -0.13014841 -0.08771082
0.14916417 -0.17208843 0.023154445 -0.13448751 -0.12129538 -0.1604076 0.07872579 -0.09040776
-0.0869537 -0.19570749 -0.038380537 -0.027420813 -0.02503644 0.15566607 -0.13545361 -0.11124302
0.10768357 -0.10311617 0.16341762 0.11190653 -0.01130211 -0.04571647 -0.012495817 -0.0014708993
0.08683929 0.13445874 -0.027632162 -0.09693281 0.09334219 -0.107299 0.03331292 0.09493846
-0.15882596 0.08639788 -0.18717995 -0.14221616 -0.16802157 -0.1266435 0.16236569 0.029879233
0.06306966 0.17220242 0.1801012 0.012574365 -0.059168626 0.08640357 -0.10944839 -0.024133712
-0.06657808 0.0042664804 -0.011911878 0.060888454 0.016111648 -0.20213528 0.015099771 -0.092322744
0.037815746 -0.0481732 -0.03699954 -0.088576086 -0.034538396 -0.047763348 0.0035802207 -0.068693615
0.16882184 -0.13165429 -0.11439823 -0.006255255 0.108399175 -0.16087134 -0.10362014 0.12885223
0.16801524 -0.024414932 -0.05124064 -0.010676124 0.12772566 0.188865 -0.003127105 -0.16708298
-0.13219273 -0.13183159 -0.08760597 0.087087184 -0.0938555 0.009182855 -0.093257494 -0.014916865
-0.14386895 -0.048033033 -0.12807465 0.0679321 0.043253776 0.08888555 0.105523564 -0.11971459
0.075436585 0.058227975 0.05430977 -0.07386953 -0.07303141 0.007257799 -0.14909686 0.11773078
-0.14053747 0.06385966 -0.020352071 0.059632532 -0.15545276 -0.057601523 -0.005131096 0.13258389
0.090640485 0.019984787 -0.07610052 0.03349179 -0.0649629 -0.124327935 0.06909618 -0.13883199
0.056567404 0.08265868 -0.1282548 -0.037264053 0.19475488 -0.011349169 0.1587516 0.144357
0.04877009 -0.060206193 -0.20234273 0.06887557 -0.18650047 -0.008424116 -0.12505662 0.068309136
-0.17446198 -0.16907004 -0.0837976 -0.11504454 0.13866733 -0.02522323 0.13549025 -0.06460863
0.07584102 -0.16853495 -0.025491035 -0.053204726 -0.121794395 -0.08213313 -0.01670644 0.11362448
-0.1949092 0.10804033 0.01498619 0.11107743 0.08009963 0.08640755 -0.061526272 -0.040404353
-0.044144336 -0.13005428 -0.07165713 -0.07526299 0.0017962308 -0.014337971 -0.13492647 0.09151103
-0.0052540773 -0.018961282 -0.02317375 0.12278032 -0.05626928 -0.14108488 -0.064745724 -0.016264563
0.109406605 0.17415427 -0.0905377 -0.047660094 0.06948465 -0.12021563 -0.15928878 -0.18382628

bias f4 [100]
00000000: 9d8d 103e ff1e b5bd 5889 48bc a907 733d
00000010: e98f 373d 30b1 5ebd e1df dfbd 810d 3abc
00000020: f2b3 18bd 9fd4 0ebe 81f3 003e 9376 90bb
00000030: 02df d9bd f146 e4bd 2aff 0b3d 80b1 b43d
00000040: 0682 babc 3412 113e ac46 b93d b1c4 6dbd
00000050: f7b2 003e e5ce f3bd f0d9 783d 1b56 bebd
00000060: 2f39 0c3e 8f99 ed3d 9680 1abe 2e3e 273e
00000070: 4e49 3e3d d0d3 0fbe 6276 42bd a044 473d
00000080: b4f1 033e 2910 f4bc d677 01be 5180 d8bd
00000090: cb55 4abd ff5e 013e 205a e2bc 81df 8ebd
000000a0: 8a89 033d 8513 debd e468 d33d 99c9 ccbd
000000b0: baf7 d33c 20df 5fbd d167 a33c ac48 c4bd
000000c0: c795 473d aa1a 823c 37b6 833d e3f9 e03d
000000d0: e13d 013e 4a40 00be 9a32 31bd 8e3d e63d
000000e0: b799 9a3d 167b be3d febc 163e 6302 37bd
000000f0: bc7c 00bd e464 233d ef60 ab3d ecad 3b3c
00000100: 2f09 69bc 390a d5bc 915f d83d 8cf0 c83d
00000110: e50d 743d 7554 55bd 3550 ff3d 5eab 73bc
00000120: c078 aabd 432b 183d 24d8 bcbd 16f8 0d3c
00000130: 2519 113e 1382 0cbd a7f6 b9bd 511e 303c
00000140: ce28 1e3c 5a82 65bd 5b56 6d3d 7613 0abc
00000150: a593 e9bd fb25 23be e5f4 8abd 25e0 d33d
00000160: 1005 653c 7b01 d73d af40 083d 6d86 b2bd
00000170: 3add bfbc 9cbf debc dc56 893d 655c f03d
00000180: 553f 98bd df77 583d daf0 9e3d c1e2 43bd
0.14116521 -0.08843803 -0.012239777 0.059333477 0.044814978 -0.054368198 -0.109313734 -0.011355759
-0.037280984 -0.13948296 0.1259289 -0.0044086664 -0.106382385 -0.111463435 0.03417889 0.08822918
-0.022767078 0.141671 0.09046683 -0.058048908 0.1256827 -0.119046964 0.060754716 -0.09293767
0.13693689 0.116015546 -0.15088114 0.16332313 0.046456628 -0.14045644 -0.04747618 0.04864943
0.12885171 -0.029792862 -0.1264337 -0.105713494 -0.049398225 0.12633894 -0.027630866 -0.06976224
0.03211359 -0.10843567 0.10322741 -0.09999389 0.025874961 -0.054656148 0.019946964 -0.095841736
0.048726823 0.015881855 0.06431239 0.10985162 0.12621261 -0.12524524 -0.043261148 0.112422094
0.0754885 0.093008205 0.14720532 -0.04468001 -0.031368956 0.03989114 0.08368098 0.01145504
-0.014223381 -0.026005851 0.10565103 0.09811506 0.059583563 -0.052082498 0.1246647 -0.0148724
-0.083238125 0.037150633 -0.09220913 0.008665105 0.14169748 -0.034303736 -0.09080248 0.0107494155
0.009653283 -0.056032516 0.057943683 -0.008427491 -0.11405114 -0.15932457 -0.06784991 0.103454866
0.013978258 0.10498329 0.033264812 -0.08717046 -0.023420919 -0.027190976 0.0670602 0.11736373
-0.074339546 0.052848693 0.077607825 -0.04782367

weight f4 [1, 100]
00000000: 7f4c d93d bbf1 d13d 9b72 b93d 06c1 8f3d
00000010: facd f73d e9d7 bdbd 5b7e 443e 626d 1a3e
00000020: ee95 fbbd 6b9b a1bd 36d7 db3d 852a 5f3d
00000030: 3bb8 f3bd a1bf 62be e2a4 ccbd 1ad9 a5bd
00000040: 244a 1f3e 07de ca3d 4b41 b4bd 1dab ecbd
00000050: 1472 3bbd 86de 0b3e 2414 b13d ab98 d3bd
00000060: 1391 053e 7220 693d 6603 9cbd da4e ee3d
00000070: 1494 1ebe 9ba6 a6bd 56fb 34be 893c f6bd
00000080: 9dc6 c1bd 518f e0bd dab3 4d3e fd94 40be
00000090: 088a bfbd 2338 103e 7290 0f3e 3915 37be
000000a0: c51b 253e 694b a53d e9da c9bd 4b51 043e
000000b0: 2d06 42be 3c97 c1bd 91fe 0d3e bac6 113e
000000c0: 05bb ff3d 9979 063e 53bb dfbd a345 02bc
000000d0: d68a 0cbe 6dd4 e23d d4a0 403e c3a6 22be
000000e0: a23e 04be e333 ee3d 643b 97bd 13a8 923d
000000f0: 6a1d 17be 0b1c ec3d 4adb 093e 574d 11be
00000100: bf55 1bbe 5319 cf3d 0008 e13d 9ea4 023e
00000110: 71a5 e93d 5807 4dbd f094 e53c 9323 ddbd
00000120: e065 2fbe 2cf2 e5bd ca4c ffbd e914 18be
00000130: 2166 90bd 1e3b e33d e93f e7bd dfe8 eabd
00000140: 39e1 bb3d 15a7 95bd 4fcd 0cbe 8d7f 38bd
00000150: 7686 5fbe c3b5 ea3d de00 083e 763f fd3c
00000160: 0876 243e 1ee6 bb3d 8af2 00be 6a18 263e
00000170: f3a3 13be 1dc3 b6bd 5508 c63d 4985 ee3d
00000180: 0fb7 b23d 83e3 56bd 98cf f5bd b32b d7bd
0.106102936 0.102511846 0.090550624 0.07019238 0.12099834 -0.09269697 0.19188826 0.15080789
-0.12284456 -0.07890972 0.107344076 0.05448391 -0.119003735 -0.22143413 -0.099923864 -0.080980495
0.15555626 0.099056296 -0.08801516 -0.11556075 -0.04576309 0.13659105 0.0864642 -0.103318535
0.13043623 0.056915708 -0.07617836 0.116361335 -0.15486175 -0.08137246 -0.17674002 -0.12023265
-0.094617106 -0.109648354 0.20088139 -0.18806835 -0.09352499 0.14083914 0.14019945 -0.1787919
0.16123874 0.08071024 -0.09856207 0.12921636 -0.18947668 -0.09452674 0.1386664 0.14235964
0.12486843 0.13132323 -0.10924401 -0.007951173 -0.13724837 0.11075673 0.18811351 -0.15883927
-0.12914518 0.1163099 -0.07384375 0.07160964 -0.14757314 0.11528786 0.13462558 -0.14189659
-0.15169428 0.10112252 0.10987854 0.12758109 0.114085086 -0.05005583 0.02802512 -0.10797801
-0.17128706 -0.11227831 -0.12465818 -0.14851727 -0.070507295 0.1109526 -0.11291487 -0.11470198
0.09173817 -0.07307259 -0.13750194 -0.045043517 -0.21828637 0.114604495 0.13281581 0.03091405
0.1606065 0.09174751 -0.12592521 0.1622025 -0.1441801 -0.08923934 0.09669558 0.11646516
0.08726322 -0.052463066 -0.12002486 -0.10506382
